Lab6/dqn.pth (torch, 502721 bytes, 6 tensors)

fc1.weight f4 [400, 8]
0.29813942 -0.44206178 -0.52693045 1.0396461 -0.48686275 -0.16894323 -0.62174827 0.29294237
0.32270762 -0.1137582 -1.0813626 -0.37946668 -0.19709104 -0.11765962 -0.17061973 -0.05948411
0.41358483 0.166284 -0.12899715 0.008703039 0.26686746 -0.7142567 -0.757237 0.15621312
0.26279223 0.07761936 -0.4729649 -0.31976 0.3521099 0.07451793 -0.5833705 -0.4824454
0.14090265 0.012038936 -0.1189179 -0.15383917 -0.32500997 -0.02907845 0.063892245 -0.34042722
-0.17574714 0.18633254 -0.11422066 0.45340127 -0.0075800456 0.31691754 -0.31106868 0.13753554
0.055507783 -1.3472298 0.13109413 -0.120386444 -0.04759844 -0.006267438 0.11885363 -0.20043875
0.26578084 -0.4744899 0.625329 -0.50425744 -0.186929 0.05241063 0.16533555 0.14248338
0.26624224 -0.22478995 -0.63412625 0.07920084 -0.5284064 0.20188744 -0.5573202 0.1396176
-0.34445715 0.2326548 -0.19149446 0.1681925 -0.7175584 0.009126277 -0.57679886 -0.09471053
-0.2611097 -0.29908413 -0.12022398 0.4286269 -0.32593095 -0.34144145 0.06053519 -0.14942512
0.4841324 -0.148474 -0.3657955 -0.07282256 0.6208158 0.2257563 0.039422337 0.09980619
0.82871175 -0.12841159 0.32270876 1.1875483 -0.108012505 0.019924078 -0.052069914 0.16547245
0.15547602 -0.7557194 -0.1274407 0.5195956 -0.11359453 -0.3461693 0.18200797 0.40125698
-0.1424864 -0.09767954 -0.1377132 -0.0006262185 0.5210404 -0.07180046 0.3993616 -0.53203696
0.23975815 0.04161363 -0.12797882 0.11055001 1.0881885 -0.30802447 -0.4955056 -0.36511242
-0.1833829 -0.49298277 -0.3742678 -0.7204574 0.5843122 0.04067724 -0.5455757 0.0005123885
0.010815384 -0.09413766 0.32482615 -0.6121121 0.23675464 -0.10967623 -0.22419834 -0.13578841
0.43132496 -0.65994 -0.16719288 0.052785583 -0.19918852 -0.46335024 -0.41908136 -0.3554322
0.4790884 0.012782343 -0.31900957 0.51142985 0.061075278 0.3970177 -0.6318616 -0.25842008
-0.37441692 0.12385272 -0.58598375 -0.09201219 0.284636 -0.39442837 0.14587654 -0.010388323
0.0033351413 -0.02007082 -0.3386156 -0.56032807 0.47361124 0.4198365 -0.17522879 -0.46103173
-0.27667752 -0.2383746 0.33805475 -0.008696051 -0.57510185 -0.119981386 0.08381522 -0.36617878
-0.1438077 -0.25466934 -0.49104342 -0.32330894 -0.9782705 -0.21045421 -0.36674625 0.13256752
-0.07570508 -0.6078303 0.2893118 1.0088704 -0.10589874 -0.009536428 0.32083318 -0.114700116
0.13214901 0.031805597 0.4295116 0.26937848 0.7053558 -0.20546243 -0.13772884 0.495344
-0.14510661 -0.11837363 0.12060027 -0.4230596 0.30453366 0.07518213 -0.4880964 -0.62429005
-0.11339837 0.031732485 -0.19115943 0.22016326 0.3766892 0.5524597 0.24664873 -0.5357815
-0.39879227 0.25363362 0.072135866 -0.1741711 0.08871536 0.12341859 0.34571767 -0.500386
0.29142553 -0.20318696 -0.43518525 -0.43497205 0.19561604 -0.31433186 -0.44409308 0.21640538
-0.12016223 -0.30859146 -0.16835882 -0.1837735 0.6268873 -0.5939659 0.23102638 -0.14878242
-0.53062147 -0.14222465 0.805747 -0.23220627 -0.13897572 -0.1497714 -0.13537061 -0.10076989
00000000: bba5 983e ec55 e2be eae4 06bf 2013 853f
00000010: 1346 f9be 74ff 2cbe e52a 1fbf 8bfc 953e
00000020: ef39 a53e 0ffa e8bd 176a 8abf 7549 c2be
00000030: 3cd2 49be 87f7 f0bd f0b6 2ebe 9ca5 73bd
00000040: 64c1 d33e 5a46 2a3e d417 04be 3197 0e3c
00000050: daa2 883e 87d9 36bf 49da 41bf 55f6 1f3e
00000060: b48c 863e e6f6 9e3d 7528 f2be 95b7 a3be
00000070: c047 b43e db9c 983d c557 15bf 1503 f7be
00000080: c948 103e f53e 453c 3a8b f3bd 0488 1dbe
00000090: b567 a6be ee35 eebc f0d9 823d 7a4c aebe
000000a0: 0ff7 33be f5cd 3e3e 85ec e9bd 3624 e83e
000000b0: 0862 f8bb 0443 a23e 6544 9fbe 1ed6 0c3e
000000c0: 215c 633d 0772 acbf 8a3d 063e 2b8d f6bd
000000d0: 95f6 42bd 155f cdbb 8869 f33d d13f 4dbe
000000e0: 6d14 883e 57f0 f2be 9015 203f 0417 01bf
000000f0: 516a 3fbe 87ac 563d b94d 293e 2ae7 113e
00000100: e750 883e 562f 66be 1956 22bf 0d34 a23d
00000110: a445 07bf 95bb 4e3e 89ac 0ebf ebf7 0e3e
00000120: b05c b0be 0f3d 6e3e 2017 44be a83a 2c3e
00000130: e8b1 37bf 6186 153c 17a9 13bf 98f7 c1bd
00000140: 2cb0 85be 8e21 99be fd37 f6bd fc74 db3e
00000150: 6ce0 a6be 6ad1 aebe bff3 773d e602 19be
00000160: 34e0 f73e 9109 18be 8c49 bbbe ff23 95bd
00000170: c9ed 1e3f a92c 673e 5179 213d 3067 cc3d
00000180: 7426 543f 547e 03be 153a a53e 9501 983f
00000190: a935 ddbd d237 a33c 4347 55bd 9c71 293e
000001a0: 1b35 1f3e d476 41bf d17f 02be 3804 053f
000001b0: 40a4 e8bd 1a3d b1be 4c60 3a3e 8e71 cd3e
000001c0: f4e7 11be 360c c8bd b004 0dbe d028 24ba
000001d0: e762 053f 1f0c 93bd 2079 cc3e 9333 08bf
000001e0: 2983 753e 0e73 2a3d e10c 03be 0b68 e23d
000001f0: c349 8b3f 62b5 9dbe e9b2 fdbe 04f0 babe
00000200: bac8 3bbe 3d68 fcbe 07a0 bfbe e56f 38bf
00000210: 7c95 153f 2d9d 263d d9aa 0bbf cf51 063a
00000220: 0233 313c 3fcb c0bd 9d4f a63e 61b3 1cbf
00000230: cf6f 723e ee9d e0bd 4094 65be 1e0c 0bbe
00000240: a0d6 dc3e d4f1 28bf 9c34 2bbe b235 583d
00000250: 13f8 4bbe 3e3c edbe d591 d6be 36fb b5be
00000260: 134b f53e 086d 513c 3955 a3be 11ed 023f
00000270: 122a 7a3d e745 cb3e afc1 21bf a34f 84be
00000280: 93b3 bfbe 7fa6 fd3d 0803 16bf e370 bcbd
00000290: cfbb 913e 84f2 c9be a960 153e c933 2abc
000002a0: 6392 5a3b 8f6b a4bc 065f adbe a971 0fbf
000002b0: 2c7d f23e cff4 d63e 2d6f 33be 5a0c ecbe
000002c0: ada8 8dbe 7918 74be 8315 ad3e e279 0ebc
000002d0: e039 13bf cdb8 f5bd 50a7 ab3d c97b bbbe
000002e0: 5342 13be 0564 82be 0b6a fbbe c088 a5be
000002f0: ef6f 7abf 4f81 57be 2ac6 bbbe c8bf 073e
00000300: 440b 9bbd c49a 1bbf ad20 943e aa22 813f
00000310: 70e1 d8bd ae3e 1cbc 3f44 a43e e5e7 eabd
00000320: 1252 073e 9646 023d f2e8 db3e faeb 893e
00000330: 3392 343f be64 52be ca08 0dbe bb9d fd3e
00000340: d496 14be e06d f2bd 46fd f63d 459b d8be
00000350: d6eb 9b3e 17f9 993d c5e7 f9be 79d1 1fbf
00000360: 683d e8bd ecf9 013d 4cbf 43be 7a72 613e
00000370: 68dd c03e 006e 0d3f 7c91 7c3e fa28 09bf
00000380: 802e ccbe 44dc 813e f8bb 933d e959 32be
00000390: 66b0 b53d e3c2 fc3d e801 b13e 4c19 00bf
000003a0: ba35 953e 3e10 50be 9ad0 debe a8b4 debe
000003b0: 924f 483e 1bf0 a0be 2b60 e3be 5f99 5d3e
000003c0: 9e17 f6bd b3ff 9dbe 4166 2cbe 1f2f 3cbe
000003d0: b07b 203f 260e 18bf 2e92 6c3e 6b5a 18be
000003e0: cfd6 07bf 57a3 11be 6f45 4e3f 7bc7 6dbe
000003f0: a74f 0ebe ad5d 19be 989e 0abe 7260 cebd

fc1.bias f4 [400]
-0.33228725 -0.22224006 0.10800873 0.17267686 -0.004386927 -0.6334765 0.2367361 0.029649464
0.1136861 -0.17230974 0.040549945 0.076582186 -0.25741482 0.1469761 0.2380262 0.033913728
-0.10715608 0.06698814 -0.2656547 0.014532055 -0.028918626 0.005632882 0.24292411 -0.04258136
0.10586258 -0.012261928 0.37644258 0.08134669 -0.29259276 0.005607734 -0.18417491 -0.38321218
-0.39439848 0.06846353 0.059062313 -0.0062884004 0.14911973 -0.2183615 -0.19777726 -0.3797092
-0.29101822 0.23068288 -0.20221305 0.024668766 -0.3655214 -0.27154455 0.2869161 -0.46880206
0.20068996 -0.4008058 -0.17334965 -0.0054093334 -0.3437396 0.039924335 -0.37771502 0.26390663
0.13290514 0.097460814 0.1258311 -0.1233561 -0.18051969 0.19380717 0.34058177 0.120566964
0.18633175 -0.46655938 0.05976944 -0.08558193 -0.24008657 0.23607388 -0.6093241 0.11470219
-0.12995447 -0.5353636 0.27961427 -0.41555098 -0.27384394 0.5261683 -0.19923042 0.11472897
0.15255024 -0.44456628 0.13519645 0.2035978 -0.0929331 0.072312355 -0.13777585 -0.024787227
-0.12389509 -0.5023181 0.013645259 -0.30625853 -0.29407042 0.063106515 0.3100801 -0.63342834
-0.5747126 -0.1638305 -0.11804025 0.35673636 0.21542443 -0.35519686 -0.43526334 0.007130502
0.27420038 -0.056611426 -0.014730675 -0.47488302 0.10945543 0.11189927 0.16949822 -0.271702
0.07877004 0.2176004 -0.45772988 -0.26781914 0.28769234 -0.1707935 -0.53945524 0.22670025
-0.010615783 -0.20409481 0.21215463 -0.12520008 -0.07772463 -0.3648804 -0.18447915 -0.11237962
-0.5683671 -0.20032786 -0.27823013 -0.13414502 -0.15950625 0.3301714 0.1984933 -0.07100012
-0.37149248 -0.20281686 -0.41172165 -0.22435996 -0.06891258 -0.18190075 0.20989005 -0.33532953
-0.5251641 -0.7790245 -0.005386657 -0.38441864 0.016140517 0.25342983 -0.59253335 -0.13018844
-0.3825131 -0.435257 -0.14544497 -0.3950677 0.04798547 -0.31531924 -0.34453717 -0.14975218
-0.3337327 -0.08722431 0.28330407 -0.058965813 -0.2468182 -0.6028845 -0.4063004 -0.13332792
0.16803561 0.08108633 0.008969443 -0.2979945 -0.42469263 0.18535042 0.023280915 -0.3539657
0.26089135 0.12336718 0.46348274 -0.48038936 -0.45831183 0.076142326 -0.3506194 0.3099651
-0.35520452 -0.48646882 -0.20672558 -0.3271754 0.33757076 -0.34261173 -0.26118022 -0.0175076
0.21652518 0.018322434 0.05723508 -0.18572286 0.04363953 -0.30754313 -0.06786135 0.39212582
0.026193073 -0.046218187 0.04614983 -0.31535676 -0.48682156 0.011143622 -0.032406405 -0.12161875
-0.33448705 -0.13244641 -0.30984294 0.18271424 -0.3221658 -0.7081828 -0.20060697 -0.25335646
-0.4996408 0.057309557 -0.34057808 -0.3066487 0.23416471 -0.14438397 -0.09817788 -0.32295537
-0.05020135 -0.23985854 -0.023155393 -0.3737736 -0.23688367 0.031426933 0.058699854 -0.29999644
0.2970807 0.34729877 -0.108480826 0.1633838 -0.49803042 -0.61478704 -0.041518215 -0.21346863
-0.54954994 0.19825476 -0.5005112 0.09480506 -0.016536826 -0.4660213 -0.109010644 -0.15754695
-0.39229804 0.20354646 -0.27946034 -0.5475095 0.09727095 -0.3591556 0.30359095 -0.26049888
00000000: 8e21 aabe e692 63be ae33 dd3d 34d2 303e
00000010: 36c0 8fbb 842b 22bf f36a 723e 6fe3 f23c
00000020: 42d4 e83d f771 30be b317 263d 1fd7 9c3d
00000030: e0cb 83be e780 163e 24bd 733e 1fe9 0a3d
00000040: a674 dbbd 1431 893d e503 88be db17 6e3c
00000050: c1e6 ecbc 0a94 b83b 19c1 783e cb69 2ebd
00000060: 7bce d83d 41e6 48bc 15bd c03e 1899 a63d
00000070: b8ce 95be 15c1 b73b 5998 3cbe 6334 c4be
00000080: 99ee c9be 9b36 8c3d 53eb 713d ed0e cebb
00000090: d8b2 183e 289a 5fbe 1f86 4abe 3f69 c2be
000000a0: 5700 95be 2238 6c3e f010 4fbe 2716 ca3c
000000b0: 9f25 bbbe e307 8bbe abe6 923e d306 f0be
000000c0: ab81 4d3e 6b36 cdbe 9282 31be c740 b1bb
000000d0: a3fe afbe b387 233d dd63 c1be c51e 873e
000000e0: 4918 083e 8999 c73d ded9 003e 1fa2 fcbd
000000f0: 27da 38be 6375 463e bc60 ae3e d0eb f63d
00000100: c0cd 3e3e dfe0 eebe cdd0 743d 9445 afbd
00000110: 41d9 75be 5abd 713e aafc 1bbf fbe8 ea3d
00000120: c912 05be 970d 09bf 9a29 8f3e 19c3 d4be
00000130: 4635 8cbe f7b2 063f 0f03 4cbe 06f7 ea3d
00000140: 2136 1c3e 319e e3be f070 0a3e f17b 503e
00000150: b653 bebd 8018 943d 1d15 0dbe 950e cbbc
00000160: b5bc fdbd eb97 00bf 5d90 5f3c ebcd 9cbe
00000170: 6690 96be fd3d 813d d2c2 9e3e 5c28 22bf
00000180: 5d20 13bf 2fc3 27be 16bf f1bd 26a6 b63e
00000190: 3998 5c3e 5ddc b5be d6da debe fca6 e93b
000001a0: fe63 8c3e 62e1 67bd ee58 71bc de23 f3be
000001b0: 2b2a e03d 722b e53d f190 2d3e 861c 8bbe
000001c0: 3052 a13d a4d2 5e3e 925b eabe 971f 89be
000001d0: 694c 933e 7ee4 2ebe bd19 0abf 1c24 683e
000001e0: d2ed 2dbc 3bfe 50be 103f 593e 7334 00be
000001f0: 172e 9fbd 9bd1 babe 1ae8 3cbe 4927 e6bd
00000200: 8280 11bf bf22 4dbe 2e74 8ebe 505d 09be
00000210: 9b55 23be 3a0c a93e d441 4b3e 8368 91bd
00000220: 4334 bebe 39af 4fbe 2ecd d2be 9ebe 65be
00000230: 0a22 8dbd 3144 3abe 6bed 563e 50b0 abbe
00000240: 2871 06bf 266e 47bf 8e82 b0bb 85d2 c4be
00000250: 1e39 843c 8ec1 813e 44b0 17bf 1e50 05be
00000260: c2d8 c3be 01da debe 87ef 14be 5046 cabe
00000270: 6a8c 443d 8671 a1be 2d67 b0be a358 19be
00000280: 03df aabe a9a2 b2bd 3b0d 913e 2386 71bd
00000290: e9bd 7cbe a356 1abf 9b06 d0be 1d87 08be
000002a0: 8711 2c3e 9710 a63d 92f4 123c bc92 98be
000002b0: 5071 d9be 80cc 3d3e 9eb7 be3c fe3a b5be
000002c0: 8d93 853e efa7 fc3d 9c4d ed3e 98f5 f5be
000002d0: d9a7 eabe 82f0 9b3d 6384 b3be bfb3 9e3e
000002e0: 5edd b5be 7112 f9be dfaf 53be 8983 a7be
000002f0: 13d6 ac3e ce6a afbe 6ab9 85be 196c 8fbc
00000300: c7b8 5d3e ee18 963c 556f 6a3d 222e 3ebe
00000310: 5dbf 323d 4b76 9dbe e4fa 8abd b7c4 c83e
00000320: db92 d63c 484f 3dbd 9b07 3d3d 7176 a1be
00000330: ad40 f9be bd93 363c 94bc 04bd 4013 f9bd
00000340: e341 abbe 08a0 07be bca3 9ebe 7119 3b3e
00000350: eaf2 a4be 784b 35bf ea6b 4dbe f0b7 81be
00000360: ebd0 ffbe 6dbd 6a3d 4060 aebe 0f01 9dbe
00000370: e0c8 6f3e 64d9 13be 7c11 c9bd 685a a5be
00000380: ee9f 4dbd 7a9d 75be 61b0 bdbc 415f bfbe
00000390: a291 72be 87b9 003d 426f 703d 2299 99be
000003a0: f61a 983e 25d1 b13e 322b debd 154e 273e
000003b0: d8fd febe af62 1dbf 010f 2abd 8597 5abe
000003c0: 4eaf 0cbf 4c03 4b3e 8121 00bf 2829 c23d
000003d0: 3d78 87bc 589a eebe f940 dfbd fd53 21be
000003e0: 4adb c8be 7c6e 503e 6d15 8fbe 9529 0cbf
000003f0: fe35 c73d 3ee3 b7be 4670 9b3e 1c60 85be

fc2.weight f4 [300, 400]
-0.06413101 -0.15563343 -0.07735605 -0.0010488831 -0.36827675 0.034243286 -0.17245895 -0.05165853
-0.2656838 -0.24295446 -0.08810356 -0.02008126 0.16072042 0.04166993 0.064395495 -0.0013356617
0.0057105096 0.05993212 -0.017141644 -0.8403887 -0.021264935 -0.09374454 -0.28263772 0.014003173
-0.23734301 0.014420539 -0.044548735 -0.411197 0.09897157 -0.055904996 0.025736444 -0.035982292
-0.04736982 -0.16377449 0.031392843 0.04114152 -0.071264654 -0.22447278 -0.18493453 0.0011815627
0.01199797 -0.0066730236 -0.0005654649 -0.045973305 -0.0097644385 0.065216646 0.08629745 -0.037591588
0.039358974 -0.30559936 0.09333341 0.020743486 0.024074852 0.1306691 -0.04690172 -0.014728901
-0.00403939 -0.09900374 -0.023380943 -0.20914939 -0.09807666 -0.02738614 -0.1194201 -0.013757782
-0.42784542 -0.02544059 -0.0036774247 -0.012798425 -0.02641002 -0.22775863 -0.019800333 -0.03900795
-0.107221976 -0.0329195 -0.44260654 -0.3276676 0.030619664 0.01247247 -0.18730123 -0.02139505
0.05264196 -0.0062447446 -0.030617872 -0.09888657 -0.5027191 -0.24491677 -0.16468441 0.05604076
-0.024930881 -0.0762691 -0.00011951099 -0.014209397 -0.09967996 -0.29993272 -0.040484354 0.013645586
-0.08010707 -0.09355497 -0.097752854 -0.04999538 -0.049416687 0.009148883 -0.28375262 0.06561458
-0.36806646 0.014274365 -0.018599343 -0.05889845 0.028751096 0.02482827 -0.3872627 -0.049657144
-0.008061382 -0.28447312 -0.24384876 -0.04552782 -0.15708102 -0.057519868 -0.00058239046 -0.21560355
-0.017885223 -0.09286859 -0.10610396 -0.16044803 -0.0322472 -0.06756116 0.012657508 -0.073673464
0.0556778 0.067169815 0.030474307 -0.011083181 -0.038031176 0.13255632 -0.04881806 -0.22731629
0.026224045 -0.102168724 0.034215108 -0.02792759 0.010026813 0.1080157 -0.17448021 -0.08922682
-0.112399 0.005698943 -0.0045338254 -0.13376391 0.025473839 -0.49994618 -0.011279021 0.012372212
-0.13168627 -0.0013900803 -0.048746336 0.03290514 -0.07469955 -0.005021649 -0.044423778 -0.077378094
-0.055383496 -0.27645525 -0.031821232 -0.22931789 -0.04773928 -0.23220636 -0.0331595 0.073406845
-0.05362556 -0.09386322 -0.5865326 -0.05122639 -0.0014577985 -0.037994467 -0.12984498 -0.030055176
0.013708943 -0.01976223 0.09475659 0.037719768 -0.05452955 -0.31441304 -0.21114661 -0.05476246
0.07281517 0.037557155 0.08927712 0.054942235 -0.13761815 0.044064786 -0.048372988 0.14595857
-0.02902984 0.009181152 -0.6933613 -0.0043689143 -0.1409552 0.025390433 -0.054875467 -0.06342109
-0.0552283 -0.08434916 -0.6080739 0.05298051 0.05691419 -0.03862836 -0.06453127 -0.24354503
0.015464709 -0.20678107 -0.0959619 0.036843807 -0.2246064 -0.15340044 -0.04537549 0.05800453
0.12191594 -0.06084975 -0.11700991 0.11327294 -0.0035676898 0.019654406 0.021552049 -0.18290056
0.007874111 0.017895741 -0.21987964 -0.011737464 0.06203574 -0.10948902 -0.16276364 -0.102188714
-0.04211215 -0.06920829 -0.08039669 -0.016471494 0.009932151 0.028856564 -0.26122633 -0.11776255
-0.14528945 -0.39297423 0.0060322513 -0.14216924 -0.47554538 -0.07031407 0.08406308 0.010954818
-0.1583761 -0.2266422 0.06738133 -0.098154 -0.15168321 -0.107005246 -0.35153213 -0.052996922
00000000: 1e57 83bd 5f5e 1fbe d96c 9ebd ad7a 89ba
00000010: c58e bcbe b042 0c3d 1499 30be e597 53bd
00000020: b507 88be 0ec9 78be a46f b4bd 7481 a4bc
00000030: e593 243e 17ae 2a3d c9e1 833d 5f11 afba
00000040: 3a1f bb3b 627b 753d a26c 8cbc b723 57bf
00000050: cd33 aebc 23fd bfbd e4b5 90be 916d 653c
00000060: 0c0a 73be 2044 6c3c bc78 36bd 6a88 d2be
00000070: 9bb1 ca3d a3fc 64bd 3cd5 d23c 2b62 13bd
00000080: db06 42bd 80b4 27be c895 003d 0384 283d
00000090: 34f3 91bd 31dc 65be 7a5f 3dbe aade 9a3a
000000a0: 2293 443c 61a9 dabb b53b 14ba 814e 3cbd
000000b0: 06fb 1fbc 4e90 853d b8bc b03d a3f9 19bd
000000c0: e036 213d 8577 9cbe 9625 bf3d 3eee a93c
000000d0: a038 c53c 1fce 053e 051c 40bd 7d51 71bc
000000e0: dc5c 84bb 79c2 cabd 6489 bfbc 422b 56be
000000f0: 6adc c8bd e658 e0bc 8692 f4bd 5268 61bc
00000100: 8e0e dbbe c968 d0bc f300 71bb 7cb0 51bc
00000110: d459 d8bc 8f39 69be 4f34 a2bc cdc6 1fbd
00000120: 3297 dbbd 99d6 06bd 539d e2be 0cc4 a7be
00000130: 17d6 fa3c 5559 4c3c e5cb 3fbe ac44 afbc
00000140: 199f 573d b7a0 ccbb 55d2 fabc 0b85 cabd
00000150: 33b2 00bf 76cb 7abe 08a3 28be ff8a 653d
00000160: d93b ccbc f932 9cbd f9a1 fab8 88ce 68bc
00000170: 0225 ccbd c890 99be ecd2 25bd bc91 5f3c
00000180: 2d0f a4bd c099 bfbd a632 c8bd f5c7 4cbd
00000190: 2769 4abd 32e5 153c 0648 91be f060 863d
000001a0: 3573 bcbe 07df 693c a65d 98bc 803f 71bd
000001b0: 6b87 eb3c a864 cb3c 4c47 c6be 4a65 4bbd
000001c0: e313 04bc 76a6 91be 7db3 79be 617b 3abd
000001d0: d9d9 20be f499 6bbd 90ab 18ba 2dc7 5cbe
000001e0: 0884 92bc e331 bebd 084d d9bd 7d4c 24be
000001f0: a415 04bd 815d 8abd 7061 4f3c 1de2 96bd
00000200: 680e 643d 5490 893d 41a5 f93c 3b96 35bc
00000210: 94c6 1bbd d8bc 073e 72f5 47bd 9ac5 68be
00000220: cfd3 d63c d63d d1bd 2425 0c3d 67c8 e4bc
00000230: 8047 243c 5637 dd3d f1aa 32be 8dbc b6bd
00000240: 7231 e6bd 33be ba3b 7c90 94bb 68f9 08be
00000250: 83ae d03c f2f8 ffbe a5cb 38bc d1b4 4a3c
00000260: c4d8 06be 5b33 b6ba 3daa 47bd 8ac7 063d
00000270: 14fc 98bd a58c a4bb b5f5 35bd 6878 9ebd
00000280: ced9 62bd 8b8b 8dbe fb56 02bd 4fd2 6abe
00000290: 438a 43bd 81c7 6dbe 42d2 07bd 5456 963d
000002a0: 7aa6 5bbd 5c3b c0bd 0027 16bf c3d2 51bd
000002b0: 9a13 bfba 16a0 1bbd 15f6 04be 4636 f6bc
000002c0: 799b 603c 66e4 a1bc be0f c23d 0b80 1a3d
000002d0: 615a 5fbd bffa a0be d136 58be 9a4e 60bd
000002e0: 1f20 953d 88d5 193d ecd6 b63d 1c0b 613d
000002f0: c6eb 0cbe 477d 343d c122 46bd 2a76 153e
00000300: fdcf edbc 8b6c 163c 2080 31bf 1c29 8fbb
00000310: 8f56 10be 99ff cf3c 19c5 60bd ebe2 81bd
00000320: 1237 62bd 41bf acbd bbaa 1bbf 1702 593d
00000330: db1e 693d c538 1ebd f828 84bd de63 79be
00000340: b15f 7d3c 6bbe 53be ac87 c4bd 88e9 163d
00000350: 38ff 65be 0115 1dbe a6db 39bd 2896 6d3d
00000360: 10af f93d 963d 79bd e4a2 efbd a5fb e73d
00000370: e7cf 69bb 4702 a13c ec8d b03c 494a 3bbe
00000380: 6a02 013c 179a 923c 2128 61be 7e4e 40bc
00000390: 3019 7e3d c83b e0bd 83ab 26be 5148 d1bd
000003a0: ca7d 2cbd 13bd 8dbd 05a7 a4bd 3aef 86bc
000003b0: 76ba 223c 9a64 ec3c 75bf 85be 7e2d f1bd
000003c0: c2c6 14be eb33 c9be 31aa c53b d094 11be
000003d0: af7a f3be d300 90bd 4429 ac3d d67b 333c
000003e0: 582d 22be e514 68be 39ff 893d f704 c9bd
000003f0: d852 1bbe 9125 dbbd 05fc b3be 4d13 59bd

fc2.bias f4 [300]
-0.08240633 0.078751974 0.18751451 -0.023568215 0.12104363 -0.018078161 -0.05903138 -0.055135973
-0.039383754 -0.012026181 -0.024202611 -0.06964117 -0.049585287 -0.018834952 -0.032386396 -0.051743876
0.07341298 -0.02769531 0.0013056331 -0.05849137 -0.06500111 0.014975118 -0.16233629 0.1442611
-0.16811849 -0.1524733 -0.0905456 -0.05812775 0.06700685 0.10234426 -0.041466728 0.22514656
-0.005900896 -0.19475694 -0.06609766 -0.045865875 0.0043486455 -0.061012994 -0.0154725285 -0.06252707
-0.17758378 -0.03574921 -0.030337691 -0.12484364 -0.022345623 0.15675883 -0.058814924 0.004150675
-0.10554692 -0.047046993 -0.041264333 -0.112376004 -0.041323446 0.086469725 -0.040982448 -0.034180954
-0.070358776 -0.061614055 -0.02891055 -0.030220458 0.033665475 -0.03974459 -0.029858591 -0.03984603
-0.04103397 -0.05133633 0.029819474 0.0036110666 -0.08175288 -0.023967527 -0.12901054 -0.05896502
-0.0039559365 -0.12247918 0.17576931 0.01150532 0.015315937 -0.13234511 -0.032461397 0.064975694
-0.08483231 0.06450823 -0.120045826 -0.019872535 -0.08135025 -0.050085865 -0.06683052 -0.108936906
-0.03510241 -0.0035436044 -0.10225546 -0.007858116 -0.10720975 -0.041749906 0.017599672 -0.011716939
0.042904545 0.035056766 0.14856556 -0.14631955 -0.09950909 0.29356062 0.13089067 0.018189896
0.026724195 -0.14415967 0.00515494 -0.11307363 -0.054504704 -0.09422424 -0.07865671 0.09271846
-0.0637529 0.016952133 0.0101789525 -0.027241534 -0.03718676 -0.04666263 -0.008006084 -0.073839046
-0.010454741 -0.058789287 -0.06654455 -0.048922718 -0.07957582 -0.20899647 -0.20989065 -0.08677603
0.14365964 -0.008546935 0.13087781 -0.05216532 -0.10480863 -0.022518884 0.04827041 -0.09265583
-0.02612418 -0.017952466 -0.056378108 0.12538846 -0.027274355 0.030267237 -0.034123152 -0.06580255
-0.06124324 -0.009405821 -0.20181775 0.04066243 0.02127121 -0.010567414 0.050444447 -0.102161944
0.0044412254 -0.098786496 0.061679523 -0.10614967 -0.004927937 -0.16077949 -0.024912719 0.009536606
-0.06370914 0.15394765 -0.03327805 0.009355333 -0.025340483 0.073489346 -0.061080437 -0.06705143
0.1051635 -0.1002679 -0.05197511 -0.03363281 -0.07018882 0.029787108 0.1212959 0.014797054
-0.013449294 -0.013398834 -0.003796623 0.13605717 -0.012708376 -0.2150465 0.026417958 -0.0383389
-0.016360365 0.07067539 0.023297224 0.0014271982 -0.038279306 0.06271542 0.10365025 -0.07568496
0.08115008 -0.066800945 0.029894326 -0.056814086 -0.067119494 -0.10279149 -0.12915055 -0.0038465108
-0.036602676 -0.1240836 -0.025531633 -0.08824248 -0.056917924 0.018594265 0.08463245 0.042624798
-0.05667567 0.005279555 0.13435513 -0.05131588 -0.042709436 -0.026366452 0.09515473 -0.013547341
-0.1025548 -0.028364971 -0.0556235 -0.04809855 0.09076972 -0.030932363 -0.010251868 0.12335813
-0.01615939 0.14014706 -0.030076638 0.0948216 -0.036588702 -0.054036994 -0.10826856 -0.05948203
-0.11969967 0.0402954 -0.001573604 -0.10351796 0.05497517 0.0038098292 -0.0048881713 -0.032532886
-0.028509993 0.1395432 -0.1776917 -0.07019722 -0.04851363 -0.0215552 0.047696114 0.06091125
-0.05057994 -0.032820825 -0.18958475 -0.0016154853 -0.16706531 0.10415907 -0.03847606 -0.0040773503
00000000: a6c4 a8bd b748 a13d ce03 403e 2112 c1bc
00000010: b9e5 f73d a718 94bc e3ca 71bd 42d6 61bd
00000020: dc50 21bd 7609 45bc 8e44 c6bc 08a0 8ebd
00000030: f119 4bbd c24b 9abc 99a7 04bd 63f1 53bd
00000040: 8b59 963d 46e1 e2bc c721 ab3a a694 6fbd
00000050: 4d1f 85bd 335a 753c 7c3b 26be 2fb9 133e
00000060: 4127 2cbe f621 1cbe f96f b9bd 5d17 6ebd
00000070: e33a 893d de99 d13d 04d9 29bd d28c 663e
00000080: 4e5c c1bb 5d6e 47be 365e 87bd dbdd 3bbd
00000090: 157f 8e3b c3e8 79bd 7d80 7dbc 310e 80bd
000000a0: 86d8 35be c36d 12bd c086 f8bc 06ae ffbd
000000b0: 2b0e b7bc 6385 203e ebe7 70bd 6302 883b
000000c0: fc28 d8bd 59b4 40bd ca04 29bd 6425 e6bd
000000d0: c642 29bd 0a17 b13d 36dd 27bd 5401 0cbd
000000e0: 4318 90bd 055f 7cbd d1d5 ecbc e590 f7bc
000000f0: cfe4 093d 39cb 22bd 019a f4bc 9735 23bd
00000100: 3c13 28bd 0b46 52bd f847 f43c a5a7 6c3b
00000110: 0e6e a7bd 8c57 c4bc 571b 04be 4e85 71bd
00000120: cda0 81bb 5dd6 fabd dffc 333e cf80 3c3c
00000130: b2ef 7a3c 7a85 07be 3ef6 04bd fa11 853d
00000140: 90bc adbd e41c 843d 96da f5bd bacb a2bc
00000150: f69a a6bd d626 4dbd 71de 88bd 501a dfbd
00000160: 8bc7 0fbd d13b 68bb 506b d1bd 54bf 00bc
00000170: c990 dbbd f301 2bbd 302d 903c 67f8 3fbc
00000180: adbc 2f3d af97 0f3d 9221 183e cbd4 15be
00000190: 6ccb cbbd 944d 963e 3408 063e fa02 953c
000001a0: b3ec da3c 989e 13be c5ea a83b 2693 e7bd
000001b0: 5340 5fbd a3f8 c0bd c516 a1bd 2de3 bd3d
000001c0: e190 82bd 33df 8a3c 9fc5 263c a329 dfbc
000001d0: 2551 18bd 5021 3fbd f32b 03bc ed38 97bd
000001e0: 5d4a 2bbc 09cd 70bd 8248 88bd 3063 48bd
000001f0: a6f8 a2bd 2c03 56be 93ed 56be a2b7 b1bd
00000200: 831b 133e 7208 0cbc d504 063e 4dab 55bd
00000210: e8a5 d6bd 8679 b8bc 32b7 453d 57c2 bdbd
00000220: 6002 d6bc 0d11 93bc bbec 66bd d565 003e
00000230: 786e dfbc fff2 f73c b8c4 0bbd 7dc3 86bd
00000240: 31da 7abd df1a 1abc 50a9 4ebe a68d 263d
00000250: f640 ae3c f222 2dbc d69e 4e3d 483a d1bd
00000260: b387 913b 9350 cabd aba3 7c3d 0065 d9bd
00000270: 887a a1bb 61a3 24be c215 ccbc 6d3f 1c3c
00000280: f079 82bd 74a4 1d3e 914e 08bd 1c47 193c
00000290: d896 cfbc 9581 963d 7b2f 7abd 4352 89bd
000002a0: f65f d73d 4259 cdbd dae3 54bd 8fc2 09bd
000002b0: 28bf 8fbd 1804 f43c fc69 f83d 586f 723c
000002c0: 6d5a 5cbc c886 5bbc c4d0 78bb 9252 0b3e
000002d0: cb36 50bc 2635 5cbe 796a d83c 4009 1dbd
000002e0: 2c06 86bc 42be 903d d2d9 be3c d310 bb3a
000002f0: c3ca 1cbd f170 803d 9546 d43d b700 9bbd
00000300: 0332 a63d efce 88bd f2e4 f43c e3b5 68bd
00000310: f275 89bd 5884 d2bd 0b40 04be be15 7cbb
00000320: b0ec 15bd 8b1f febd b727 d1bc 79b8 b4bd
00000330: c522 69bd 0053 983c c753 ad3d 5797 2e3d
00000340: bf24 68bd 1e00 ad3b 6494 093e 9a30 52bd
00000350: 17f0 2ebd 75fe d7bc 7ce0 c23d abf5 5dbc
00000360: 4008 d2bd a85d e8bc 78d5 63bd fc02 45bd
00000370: 7ae5 b93d de65 fdbc 73f7 27bc 30a3 fc3d
00000380: b260 84bc b682 0f3e 4863 f6bc d431 c23d
00000390: 09de 15bd e555 5dbd e8bb ddbd 6ea3 73bd
000003a0: 1a25 f5bd ca0c 253d 6341 ceba 3901 d4bd
000003b0: a52d 613d 54ae 793b f42c a0bb 3441 05bd
000003c0: ca8d e9bc 6ae4 0e3e d0f4 35be 8fc3 8fbd
000003d0: 3ab6 46bd 8894 b0bc 005d 433d 137e 793d
000003e0: e92c 4fbd 216f 06bd 8122 42be b1be d3ba
000003f0: 2b13 2bbe 5a51 d53d 1399 1dbd 4b9b 85bb

fc3.weight f4 [4, 300]
-0.030133767 0.19766065 0.49393323 -0.2911819 -0.1647487 -0.10417517 -0.060565688 0.05156713
-0.18770257 0.45712635 0.038417283 0.20555878 -0.09834594 -0.012055801 -0.038206555 -0.028434642
-0.24666335 0.029003626 0.11522564 -0.11449371 -0.022999374 0.6655044 0.14894286 0.39185035
-0.18259661 -0.21447243 0.12181239 -0.021266388 0.34900218 0.29231468 0.010712784 0.4380398
-0.013811832 -0.10761359 0.36001053 0.007924117 -0.04056871 -0.17211637 0.021737924 0.011200251
-0.07271164 0.03529355 0.08014024 0.36263284 -0.05722556 0.58604676 -0.061025504 -0.14349246
0.14339784 0.03460782 -0.0010591459 0.07289794 -0.0069425646 -0.27644548 -0.034045134 0.050377022
0.01807787 -0.011965899 0.04310755 -0.020290295 -0.48919055 0.08442188 0.32307005 -0.32356173
-0.2757764 0.037412215 0.006628368 0.5912311 0.057406563 -0.008648152 0.014342224 -0.09712807
-0.07229944 0.068358414 0.31078088 0.01330577 0.047985222 -0.00022002631 -0.0028845584 -0.2609108
0.09302807 0.2963425 0.023550358 -0.27678102 -0.32071906 0.03657392 0.024936678 -0.28498018
0.027962206 0.29031277 0.4284573 -0.08265362 0.070372246 -0.4426622 -0.031178458 0.017728755
0.40993595 0.6499043 0.26408684 0.4008679 0.04905765 0.25954837 -0.04499308 0.02578587
0.22282223 -0.086021304 -0.22718896 0.5271283 0.030319493 -0.093262024 0.076205604 0.2948164
0.03844814 0.16254574 -0.11694651 0.41483703 0.026027104 0.0014046383 0.27727568 -0.020759083
-0.0064016995 -0.10221771 -0.027102763 -0.046420626 -0.06629418 -0.31771204 0.12789108 -0.40281084
0.4508801 -0.017203253 -0.26004887 0.04504828 -0.0977789 -0.060386635 0.090666145 -0.16973916
0.015300804 -0.0044829324 0.0211871 0.37673563 0.030845474 -0.072214745 -0.024746528 -0.20153809
0.029126722 0.6087768 -0.12514335 0.2365926 0.018939259 0.08852462 -0.3306459 -0.2348615
0.1919276 0.049771957 -0.0045693503 0.41274548 0.429254 -0.045486327 -0.0460082 0.358535
-0.076996766 0.17154753 -0.25873518 -0.06558785 0.041642427 0.45156077 -0.1283326 -0.016820582
-0.36448574 0.22544326 0.40721664 -0.081248 -0.37207305 0.3004451 0.2898705 -0.03785769
-0.5511967 -0.045427646 -0.07373268 0.23549542 -0.09135321 -0.12187505 -0.005755563 -0.23297915
0.017636864 0.45301366 0.0489834 0.032570813 0.016404435 -0.5149847 0.48111713 0.348259
0.46506697 0.04864353 -0.45016584 -0.04948603 0.058372494 -0.2825947 0.022469869 0.21316704
0.08597717 -0.5565142 0.016796373 0.029016178 -0.018803844 -0.08486325 -0.29676262 -0.06121267
-0.11503394 0.003195613 0.43156713 0.13100953 0.03804319 -0.023078317 0.04836115 -0.05680979
-0.18131036 0.14146994 0.09071683 0.012576116 -0.15203558 0.32121024 0.045574497 0.36426622
0.0060106725 0.098015726 0.02398549 0.4402049 -0.023820195 -0.042365033 0.010927045 -0.2614435
-0.017157555 -0.1503057 -0.1319465 0.7720992 -0.1624076 0.015108624 0.044549126 -0.07176845
0.052498132 0.46803927 -0.35740158 0.04060656 -0.07359233 0.0343711 0.49389565 0.5753999
0.044502124 0.023533517 0.31783918 0.3334045 -0.20177993 -0.061637625 0.022116886 -0.05181655
00000000: 17db f6bc 8e67 4a3e d1e4 fc3e cb15 95be
00000010: e2b3 28be cb59 d5bd ba13 78bd 0e38 533d
00000020: 1a35 40be 770c ea3e 715b 1d3d 007e 523e
00000030: 9969 c9bd b285 45bc 7a7e 1cbd c4ef e8bc
00000040: 5195 7cbe 0399 ed3c 6cfb eb3d ae7b eabd
00000050: 2f69 bcbc 7f5e 2a3f 7a84 183e 9ca0 c83e
00000060: 9bfa 3abe a99e 5bbe c678 f93d d936 aebc
00000070: 6ab0 b23e 45aa 953e ac84 2f3c c146 e03e
00000080: 064b 62bc 8464 dcbd 4d53 b83e 28d4 013c
00000090: 602b 26bd 463f 30be bb13 b23c 4281 373c
000000a0: d7e9 94bd f88f 103d 9120 a43d 03ab b93e
000000b0: 5965 6abd 2907 163f e1f5 79bd b0ef 12be
000000c0: e2d6 123e eec0 0d3d 0ad3 8aba 844b 953d
000000d0: 747e e3bb 438a 8dbe e972 0bbd 2358 4e3d
000000e0: 0b18 943c 9e0c 44bc 8b91 303d d537 a6bc
000000f0: 2f77 fabe 61e5 ac3d 7069 a53e e2a9 a5be
00000100: 9032 8dbe 8d3d 193d c832 d93b ec5a 173f
00000110: 2523 6b3d fbb0 0dbc a6fb 6a3c 15eb c6bd
00000120: bb11 94bd 7fff 8b3d ac1e 9f3e 7200 5a3c
00000130: 278c 443d ddb6 66b9 dc0a 3dbb 1a96 85be
00000140: 8085 be3d 34ba 973e aeec c03c 3eb6 8dbe
00000150: 4a35 a4be 89ce 153d 0148 cc3c ece8 91be
00000160: ff10 e53c e0a3 943e c15e db3e 4d46 a9bd
00000170: 531f 903d 9fa4 e2be f769 ffbc e53b 913c
00000180: 20e3 d13e 2160 263f 6436 873e 8f3e cd3e
00000190: adf0 483d 86e3 843e aa4a 38bd e43c d33c
000001a0: 832b 643e f02b b0bd 39a4 68be e1f1 063f
000001b0: 9660 f83c 2900 bfbd af11 9c3d 2df2 963e
000001c0: cc7b 1d3d 6472 263e a781 efbd 8565 d43e
000001d0: cb36 d53c d71b b83a 14f7 8d3e f40e aabc
000001e0: 59c5 d1bb 8557 d1bd 9d06 debc 8e23 3ebd
000001f0: 3ec5 87bd 27ab a2be e1f5 023e 393d cebe
00000200: c2d9 e63e d6ed 8cbc 2025 85be 8c84 383d
00000210: 4e40 c8bd fa57 77bd 2caf b93d 1ad0 2dbe
00000220: 39b0 7a3c 90e5 92bb 9290 ad3c 7ee3 c03e
00000230: a6af fc3c 53e5 93bd 3bb9 cabc 0060 4ebe
00000240: 2a9b ee3c ccd8 1b3f 9425 00be 5545 723e
00000250: 8126 9b3c 654c b53d 6b4a a9be 887f 70be
00000260: ab88 443e aedd 4b3d 7dba 95bb 6053 d33e
00000270: 2ec7 db3e df4f 3abd 1873 3cbd e691 b73e
00000280: 7bb0 9dbd 28aa 2f3e f078 84be ec52 86bd
00000290: 4091 2a3d f932 e73e 9f69 03be 51cb 89bc
000002a0: e09d babe 99da 663e b37e d03e 5a65 a6bd
000002b0: 5c80 bebe f1d3 993e e869 943e aa10 1bbd
000002c0: 3a1b 0dbf 5712 3abd 2901 97bd b625 713e
000002d0: 6417 bbbd a099 f9bd 2999 bcbb 1692 6ebe
000002e0: 2f7b 903c 68f1 e73e d1a2 483d f968 053d
000002f0: 9862 863c 0ad6 03bf fc54 f63e 014f b23e
00000300: 421d ee3e 703e 473d 237c e6be ddb1 4abd
00000310: ff17 6f3d 41b0 90be bb12 b83c 7648 5a3e
00000320: cc14 b03d b777 0ebf 8c98 893c 56b3 ed3c
00000330: 850a 9abc c9cc adbd 45f1 97be 23ba 7abd
00000340: ea96 ebbd 7d6d 513b 5ef6 dc3e 5d27 063e
00000350: 2dd3 1b3d bd0e bdbc 5716 463d 62b1 68bd
00000360: 6ca9 39be 7fdd 103e bfc9 b93d 0e0c 4e3c
00000370: 37af 1bbe ab75 a43e 53ac 3a3d 1a81 ba3e
00000380: 2df5 c43b 78bc c83d 387d c43c 8962 e13e
00000390: 9222 c3bc f586 2dbd 5907 333c ecdb 85be
000003a0: 008e 8cbc bde9 19be fc1c 07be 4ba8 453f
000003b0: 2e4e 26be 298a 773c 2579 363d 56fb 92bd
000003c0: 4808 573d d8a2 ef3e 57fd b6be 1053 263d
000003d0: 93b7 96bd b6c8 0c3d e4df fc3e 684d 133f
000003e0: dc47 363d 5dc9 c03c d1bb a23e ffb3 aa3e
000003f0: 669f 4ebe bc77 7cbd 792e b53c 973d 54bd

fc3.bias f4 [4]
-0.030443339 -0.14720277 0.06558923 -0.15648301
00000000: 4f64 f9bc 53bc 16be a553 863d 153d 20be
